{"class_name": "Functional", "config": {"name": "model_2", "layers": [{"class_name": "InputLayer", "config": {"batch_input_shape": [null, 2], "dtype": "float32", "sparse": false, "ragged": false, "name": "input_1"}, "name": "input_1", "inbound_nodes": [], "shared_object_id": 0}, {"class_name": "Functional", "config": {"name": "model", "layers": [{"class_name": "InputLayer", "config": {"batch_input_shape": [null, 2], "dtype": "float32", "sparse": false, "ragged": false, "name": "input_1"}, "name": "input_1", "inbound_nodes": [], "shared_object_id": 0}, {"class_name": "Dense", "config": {"name": "dense", "trainable": true, "dtype": "float32", "units": 2, "activation": "relu", "use_bias": true, "kernel_initializer": {"class_name": "GlorotUniform", "config": {"seed": null}}, "bias_initializer": {"class_name": "Zeros", "config": {}}, "kernel_regularizer": null, "bias_regularizer": null, "activity_regularizer": null, "kernel_constraint": null, "bias_constraint": null}, "name": "dense", "inbound_nodes": [[["input_1", 0, 0, {}]]]}, {"class_name": "Dense", "config": {"name": "dense_1", "trainable": true, "dtype": "float32", "units": 1, "activation": "relu", "use_bias": true, "kernel_initializer": {"class_name": "GlorotUniform", "config": {"seed": null}}, "bias_initializer": {"class_name": "Zeros", "config": {}}, "kernel_regularizer": null, "bias_regularizer": null, "activity_regularizer": {"class_name": "L2", "config": {"l2": 0.10000000149011612}}, "kernel_constraint": null, "bias_constraint": null}, "name": "dense_1", "inbound_nodes": [[["dense", 0, 0, {}]]]}, {"class_name": "Dropout", "config": {"name": "dropout", "trainable": true, "dtype": "float32", "rate": 0.2, "noise_shape": null, "seed": null}, "name": "dropout", "inbound_nodes": [[["dense_1", 0, 0, {}]]]}, {"class_name": "Dense", "config": {"name": "dense_2", "trainable": true, "dtype": "float32", "units": 32, "activation": "relu", "use_bias": true, "kernel_initializer": {"class_name": "GlorotUniform", "config": {"seed": null}}, "bias_initializer": {"class_name": "Zeros", "config": {}}, "kernel_regularizer": null, "bias_regularizer": null, "activity_regularizer": {"class_name": "L2", "config": {"l2": 0.10000000149011612}}, "kernel_constraint": null, "bias_constraint": null}, "name": "dense_2", "inbound_nodes": [[["dropout", 0, 0, {}]]]}, {"class_name": "Dropout", "config": {"name": "dropout_1", "trainable": true, "dtype": "float32", "rate": 0.2, "noise_shape": null, "seed": null}, "name": "dropout_1", "inbound_nodes": [[["dense_2", 0, 0, {}]]]}, {"class_name": "Dense", "config": {"name": "dense_3", "trainable": true, "dtype": "float32", "units": 2, "activation": "linear", "use_bias": true, "kernel_initializer": {"class_name": "GlorotUniform", "config": {"seed": null}}, "bias_initializer": {"class_name": "Zeros", "config": {}}, "kernel_regularizer": null, "bias_regularizer": null, "activity_regularizer": null, "kernel_constraint": null, "bias_constraint": null}, "name": "dense_3", "inbound_nodes": [[["dropout_1", 0, 0, {}]]]}, {"class_name": "Dense", "config": {"name": "dense_4", "trainable": true, "dtype": "float32", "units": 2, "activation": "linear", "use_bias": true, "kernel_initializer": {"class_name": "GlorotUniform", "config": {"seed": null}}, "bias_initializer": {"class_name": "Zeros", "config": {}}, "kernel_regularizer": null, "bias_regularizer": null, "activity_regularizer": null, "kernel_constraint": null, "bias_constraint": null}, "name": "dense_4", "inbound_nodes": [[["dropout_1", 0, 0, {}]]]}, {"class_name": "Lambda", "config": {"name": "lambda", "trainable": true, "dtype": "float32", "function": "sampling", "function_type": "function", "module": "pyod.models.vae", "output_shape": [2], "output_shape_type": "raw", "output_shape_module": null, "arguments": {}}, "name": "lambda", "inbound_nodes": [[["dense_3", 0, 0, {}], ["dense_4", 0, 0, {}]]]}], "input_layers": [["input_1", 0, 0]], "output_layers": [["dense_3", 0, 0], ["dense_4", 0, 0], ["lambda", 0, 0]]}, "name": "model", "inbound_nodes": [[["input_1", 0, 0, {}]]]}, {"class_name": "Functional", "config": {"name": "model_1", "layers": [{"class_name": "InputLayer", "config": {"batch_input_shape": [null, 2], "dtype": "float32", "sparse": false, "ragged": false, "name": "input_2"}, "name": "input_2", "inbound_nodes": []}, {"class_name": "Dense", "config": {"name": "dense_5", "trainable": true, "dtype": "float32", "units": 2, "activation": "relu", "use_bias": true, "kernel_initializer": {"class_name": "GlorotUniform", "config": {"seed": null}}, "bias_initializer": {"class_name": "Zeros", "config": {}}, "kernel_regularizer": null, "bias_regularizer": null, "activity_regularizer": null, "kernel_constraint": null, "bias_constraint": null}, "name": "dense_5", "inbound_nodes": [[["input_2", 0, 0, {}]]]}, {"class_name": "Dense", "config": {"name": "dense_6", "trainable": true, "dtype": "float32", "units": 32, "activation": "relu", "use_bias": true, "kernel_initializer": {"class_name": "GlorotUniform", "config": {"seed": null}}, "bias_initializer": {"class_name": "Zeros", "config": {}}, "kernel_regularizer": null, "bias_regularizer": null, "activity_regularizer": null, "kernel_constraint": null, "bias_constraint": null}, "name": "dense_6", "inbound_nodes": [[["dense_5", 0, 0, {}]]]}, {"class_name": "Dropout", "config": {"name": "dropout_2", "trainable": true, "dtype": "float32", "rate": 0.2, "noise_shape": null, "seed": null}, "name": "dropout_2", "inbound_nodes": [[["dense_6", 0, 0, {}]]]}, {"class_name": "Dense", "config": {"name": "dense_7", "trainable": true, "dtype": "float32", "units": 1, "activation": "relu", "use_bias": true, "kernel_initializer": {"class_name": "GlorotUniform", "config": {"seed": null}}, "bias_initializer": {"class_name": "Zeros", "config": {}}, "kernel_regularizer": null, "bias_regularizer": null, "activity_regularizer": null, "kernel_constraint": null, "bias_constraint": null}, "name": "dense_7", "inbound_nodes": [[["dropout_2", 0, 0, {}]]]}, {"class_name": "Dropout", "config": {"name": "dropout_3", "trainable": true, "dtype": "float32", "rate": 0.2, "noise_shape": null, "seed": null}, "name": "dropout_3", "inbound_nodes": [[["dense_7", 0, 0, {}]]]}, {"class_name": "Dense", "config": {"name": "dense_8", "trainable": true, "dtype": "float32", "units": 2, "activation": "sigmoid", "use_bias": true, "kernel_initializer": {"class_name": "GlorotUniform", "config": {"seed": null}}, "bias_initializer": {"class_name": "Zeros", "config": {}}, "kernel_regularizer": null, "bias_regularizer": null, "activity_regularizer": null, "kernel_constraint": null, "bias_constraint": null}, "name": "dense_8", "inbound_nodes": [[["dropout_3", 0, 0, {}]]]}], "input_layers": [["input_2", 0, 0]], "output_layers": [["dense_8", 0, 0]]}, "name": "model_1", "inbound_nodes": [[["model", 1, 2, {}]]]}, {"class_name": "Dense", "config": {"name": "dense", "trainable": true, "dtype": "float32", "units": 2, "activation": "relu", "use_bias": true, "kernel_initializer": {"class_name": "GlorotUniform", "config": {"seed": null}, "shared_object_id": 1}, "bias_initializer": {"class_name": "Zeros", "config": {}, "shared_object_id": 2}, "kernel_regularizer": null, "bias_regularizer": null, "activity_regularizer": null, "kernel_constraint": null, "bias_constraint": null}, "name": "dense", "inbound_nodes": [[["input_1", 0, 0, {}]]], "shared_object_id": 3}, {"class_name": "Dense", "config": {"name": "dense_1", "trainable": true, "dtype": "float32", "units": 1, "activation": "relu", "use_bias": true, "kernel_initializer": {"class_name": "GlorotUniform", "config": {"seed": null}, "shared_object_id": 4}, "bias_initializer": {"class_name": "Zeros", "config": {}, "shared_object_id": 5}, "kernel_regularizer": null, "bias_regularizer": null, "activity_regularizer": {"class_name": "L2", "config": {"l2": 0.10000000149011612}, "shared_object_id": 6}, "kernel_constraint": null, "bias_constraint": null}, "name": "dense_1", "inbound_nodes": [[["dense", 0, 0, {}]]], "shared_object_id": 7}, {"class_name": "Dropout", "config": {"name": "dropout", "trainable": true, "dtype": "float32", "rate": 0.2, "noise_shape": null, "seed": null}, "name": "dropout", "inbound_nodes": [[["dense_1", 0, 0, {}]]], "shared_object_id": 8}, {"class_name": "Dense", "config": {"name": "dense_2", "trainable": true, "dtype": "float32", "units": 32, "activation": "relu", "use_bias": true, "kernel_initializer": {"class_name": "GlorotUniform", "config": {"seed": null}, "shared_object_id": 9}, "bias_initializer": {"class_name": "Zeros", "config": {}, "shared_object_id": 10}, "kernel_regularizer": null, "bias_regularizer": null, "activity_regularizer": {"class_name": "L2", "config": {"l2": 0.10000000149011612}, "shared_object_id": 11}, "kernel_constraint": null, "bias_constraint": null}, "name": "dense_2", "inbound_nodes": [[["dropout", 0, 0, {}]]], "shared_object_id": 12}, {"class_name": "Dropout", "config": {"name": "dropout_1", "trainable": true, "dtype": "float32", "rate": 0.2, "noise_shape": null, "seed": null}, "name": "dropout_1", "inbound_nodes": [[["dense_2", 0, 0, {}]]], "shared_object_id": 13}, {"class_name": "Dense", "config": {"name": "dense_4", "trainable": true, "dtype": "float32", "units": 2, "activation": "linear", "use_bias": true, "kernel_initializer": {"class_name": "GlorotUniform", "config": {"seed": null}, "shared_object_id": 17}, "bias_initializer": {"class_name": "Zeros", "config": {}, "shared_object_id": 18}, "kernel_regularizer": null, "bias_regularizer": null, "activity_regularizer": null, "kernel_constraint": null, "bias_constraint": null}, "name": "dense_4", "inbound_nodes": [[["dropout_1", 0, 0, {}]]], "shared_object_id": 19}, {"class_name": "Dense", "config": {"name": "dense_3", "trainable": true, "dtype": "float32", "units": 2, "activation": "linear", "use_bias": true, "kernel_initializer": {"class_name": "GlorotUniform", "config": {"seed": null}, "shared_object_id": 14}, "bias_initializer": {"class_name": "Zeros", "config": {}, "shared_object_id": 15}, "kernel_regularizer": null, "bias_regularizer": null, "activity_regularizer": null, "kernel_constraint": null, "bias_constraint": null}, "name": "dense_3", "inbound_nodes": [[["dropout_1", 0, 0, {}]]], "shared_object_id": 16}, {"class_name": "TFOpLambda", "config": {"name": "tf.__operators__.add", "trainable": true, "dtype": "float32", "function": "__operators__.add"}, "name": "tf.__operators__.add", "inbound_nodes": [["_CONSTANT_VALUE", -1, 1.0, {"y": ["dense_4", 0, 0], "name": null}]]}, {"class_name": "TFOpLambda", "config": {"name": "tf.math.square", "trainable": true, "dtype": "float32", "function": "math.square"}, "name": "tf.math.square", "inbound_nodes": [["dense_3", 0, 0, {"name": null}]]}, {"class_name": "TFOpLambda", "config": {"name": "tf.math.subtract", "trainable": true, "dtype": "float32", "function": "math.subtract"}, "name": "tf.math.subtract", "inbound_nodes": [["tf.__operators__.add", 0, 0, {"y": ["tf.math.square", 0, 0], "name": null}]]}, {"class_name": "TFOpLambda", "config": {"name": "tf.math.exp", "trainable": true, "dtype": "float32", "function": "math.exp"}, "name": "tf.math.exp", "inbound_nodes": [["dense_4", 0, 0, {}]]}, {"class_name": "TFOpLambda", "config": {"name": "tf.math.subtract_1", "trainable": true, "dtype": "float32", "function": "math.subtract"}, "name": "tf.math.subtract_1", "inbound_nodes": [["tf.math.subtract", 0, 0, {"y": ["tf.math.exp", 0, 0], "name": null}]]}, {"class_name": "TFOpLambda", "config": {"name": "tf.math.reduce_sum", "trainable": true, "dtype": "float32", "function": "math.reduce_sum"}, "name": "tf.math.reduce_sum", "inbound_nodes": [["tf.math.subtract_1", 0, 0, {"axis": -1, "keepdims": false}]]}, {"class_name": "TFOpLambda", "config": {"name": "tf.convert_to_tensor", "trainable": true, "dtype": "float32", "function": "convert_to_tensor"}, "name": "tf.convert_to_tensor", "inbound_nodes": [["model_1", 1, 0, {}]]}, {"class_name": "TFOpLambda", "config": {"name": "tf.cast", "trainable": true, "dtype": "float32", "function": "cast"}, "name": "tf.cast", "inbound_nodes": [["input_1", 0, 0, {"dtype": "float32"}]]}, {"class_name": "TFOpLambda", "config": {"name": "tf.math.multiply_1", "trainable": true, "dtype": "float32", "function": "math.multiply"}, "name": "tf.math.multiply_1", "inbound_nodes": [["_CONSTANT_VALUE", -1, -0.5, {"y": ["tf.math.reduce_sum", 0, 0], "name": null}]]}, {"class_name": "TFOpLambda", "config": {"name": "tf.math.squared_difference", "trainable": true, "dtype": "float32", "function": "math.squared_difference"}, "name": "tf.math.squared_difference", "inbound_nodes": [["tf.convert_to_tensor", 0, 0, {"y": ["tf.cast", 0, 0], "name": null}]]}, {"class_name": "TFOpLambda", "config": {"name": "tf.math.subtract_2", "trainable": true, "dtype": "float32", "function": "math.subtract"}, "name": "tf.math.subtract_2", "inbound_nodes": [["tf.math.multiply_1", 0, 0, {"y": 0.0, "name": null}]]}, {"class_name": "TFOpLambda", "config": {"name": "tf.math.reduce_mean", "trainable": true, "dtype": "float32", "function": "math.reduce_mean"}, "name": "tf.math.reduce_mean", "inbound_nodes": [["tf.math.squared_difference", 0, 0, {"axis": -1, "keepdims": false}]]}, {"class_name": "TFOpLambda", "config": {"name": "tf.math.abs", "trainable": true, "dtype": "float32", "function": "math.abs"}, "name": "tf.math.abs", "inbound_nodes": [["tf.math.subtract_2", 0, 0, {}]]}, {"class_name": "TFOpLambda", "config": {"name": "tf.math.multiply", "trainable": true, "dtype": "float32", "function": "math.multiply"}, "name": "tf.math.multiply", "inbound_nodes": [["tf.math.reduce_mean", 0, 0, {"y": 2, "name": null}]]}, {"class_name": "TFOpLambda", "config": {"name": "tf.math.multiply_2", "trainable": true, "dtype": "float32", "function": "math.multiply"}, "name": "tf.math.multiply_2", "inbound_nodes": [["_CONSTANT_VALUE", -1, 1.0, {"y": ["tf.math.abs", 0, 0], "name": null}]]}, {"class_name": "TFOpLambda", "config": {"name": "tf.__operators__.add_1", "trainable": true, "dtype": "float32", "function": "__operators__.add"}, "name": "tf.__operators__.add_1", "inbound_nodes": [["tf.math.multiply", 0, 0, {"y": ["tf.math.multiply_2", 0, 0], "name": null}]]}, {"class_name": "TFOpLambda", "config": {"name": "tf.math.reduce_mean_1", "trainable": true, "dtype": "float32", "function": "math.reduce_mean"}, "name": "tf.math.reduce_mean_1", "inbound_nodes": [["tf.__operators__.add_1", 0, 0, {"axis": null, "keepdims": false}]]}, {"class_name": "AddLoss", "config": {"name": "add_loss", "trainable": true, "dtype": "float32", "unconditional": false}, "name": "add_loss", "inbound_nodes": [[["tf.math.reduce_mean_1", 0, 0, {}]]]}], "input_layers": [["input_1", 0, 0]], "output_layers": [["model_1", 1, 0]]}, "keras_version": "2.10.0", "backend": "tensorflow"}